checkpoint.pth (torch_old, 739076 bytes, 12 tensors)

fc1.weight f4 [512, 37]
00000000: 8053 a1ba 5e9d b43d 208e 0abe 5cc8 f7bd
00000010: 62ad 81bd 4492 343d c077 55bb 877a 053e
00000020: 8008 6fbc 302f 323d f280 4bbd e45c 04bd
00000030: e5d3 20be b2fb debd 81ca 8abd 008e c73b
00000040: e61a 853d 6a05 ca3d 6141 e4bd 989d 92bd
00000050: 2095 743d 93ca 0b3e d494 0abd cef2 fb3d
00000060: 2013 d9bc 8081 8e3c 976e 183e 132b 1cbe
00000070: 65f5 d3bd d879 2abd cd3d 83bd 2973 113e
00000080: 2b3c dabd 34fd 9abd 8239 ebbd 3aaa 1dbe
00000090: 008a c4bd 6bb5 103e a43c 963d 182f a33d
000000a0: f0a7 0d3c 6e9d acbd c0d9 e33c b32e 1dbe
000000b0: ba47 f3bd c692 adbd 126e d43d 7268 c53d
000000c0: e851 95bd 8060 c2bb 4655 d73d 5d5b 273e
000000d0: 3ca0 853d e8ef b53c d6be e13d 4b3e c6bd
000000e0: c8f5 fa3c ba84 02be c45a e9bd 96ed adbd
000000f0: be57 983d 2e67 873d 4b70 c7bd b06e 4b3d
00000100: 3ad5 b83d e8fb a9bc 60af cd3b 6006 1c3d
00000110: c2df d03d b9a4 213e f4ba 01be d2c5 76bd
00000120: 7852 843d 557b 0b3e a37e 123e 3b8a 143e
00000130: 1803 063d b763 12be 70c8 773c 70a2 d2bd
00000140: b0e3 1cbe a792 153e 9f00 003e aced 27be
00000150: 4013 fc3c e8df e2bc b09f ddbc 2c1f 9abd
00000160: d479 813d 126c c7bd c8da 763d 3444 aa3d
00000170: b206 f13d 9cc8 7b3d d69d 26be c068 dabd
00000180: 2a1d a83d 60f0 0c3d aa52 03be 46df c1bd
00000190: b95e 1e3e fedd e23d 0fce 92bd a47a 29bd
000001a0: 5d5d 20be 80a7 41bb f78b fdbd 8cda 01be
000001b0: 6069 14bc 7835 ca3c 67e2 89bd a6c8 c73d
000001c0: 74e3 ccbd 35c0 183e a6bb e63d 4cf6 0dbe
000001d0: e297 27bd a013 f33b 487e c43c 40b5 1f3d
000001e0: 5820 843d 8057 213c c247 a4bd 4e51 9f3d
000001f0: fd7b 21be d28e c7bd 1291 28bd 7a01 a4bd
00000200: f891 6bbd 96fa 09be dc3c 0fbd 60f0 0f3d
00000210: 6857 dbbd b03a 0abc ea04 f13d 6872 8abc
00000220: a0b7 953b d05d 68bc 7c47 083d 8a14 d63d
00000230: b776 1f3e 02d1 d53d 1fd4 1f3e a0cc 42bc
00000240: 403a 17be dc9d 9fbd de40 e53d 80af 8bba
00000250: a059 a7bd 2201 01be ac8b 1dbe 8d15 0ebe
00000260: fc95 08bd 6ea4 b83d 2a07 b63d 5b5b 22be
00000270: 4605 d23d 30bb 03be ec5b 0ebd aa84 88bd
00000280: f4b3 01bd 8036 04bd 6110 17be e65a 11be
00000290: 60bd d2bc 0055 0b3b 0df3 98bd 3ca9 7d3d
000002a0: 1a85 17be 20c7 35bc a50b 143e 3255 89bd
000002b0: 0304 183e d0dd 733d a5ec 17be b605 d53d
000002c0: 8068 9bbc e24c 96bd 079e 063e d709 08be
000002d0: 7883 903c fcfb 0cbd 166f f03d 48f8 3b3d
000002e0: eac7 a13d 40cf 6d3d 30ee 21bd 789d 0dbd
000002f0: c9ba 0abe da6e b63d 71a9 053e fe5e e63d
00000300: 427e edbd c042 f03b f957 edbd 8f57 b9bd
00000310: cb30 c4bd a81f 663d 32a3 c8bd 400f 6bbb
00000320: 409f e23b 9e09 d93d 9382 febd 2624 e7bd
00000330: 9f80 c3bd f2a8 eb3d 500e 72bd 29ff 0d3e
00000340: a87f 733d d088 aa3c 8067 a0ba 4c1d 05bd
00000350: 00f9 a83c 28c3 19bd 0068 97ba 38d6 ab3c
00000360: 13ae 03be 2778 b0bd dfef 073e 969e 08be
00000370: 3069 41bc 6f88 263e c83f 733d e085 983b
00000380: 9ae3 11be d2c9 a63d 32d1 efbd e425 3fbd
00000390: eced 61bd 0870 c7bc 00b3 eb3a 13da 0a3e
000003a0: a020 a83c f7c8 163e faf4 cd3d 0cdc d4bd
000003b0: a601 973d 1401 eebd 83b2 8ebd 4c0e 463d
000003c0: 1c58 5e3d f697 fc3d 6ac5 58bd 00fc 8939
000003d0: e255 ad3d 01ce 22be 726b f33d 3835 0bbe
000003e0: 407e 143b a0f8 e4bc 3753 b1bd 9000 b23c
000003f0: 0f35 0b3e 74d7 44bd ede3 c7bd 9a0a 79bd
-0.001230821 0.08819078 -0.13530779 -0.120987624 -0.06331898 0.044084802 -0.0032572597 0.13035022
-0.014589429 0.043502033 -0.04968352 -0.03231515 -0.15705831 -0.10887851 -0.06776906 0.0060899258
0.06499271 0.09864314 -0.111452825 -0.07158965 0.05971253 0.13651495 -0.03383334 0.12302171
-0.026498377 0.017395735 0.14885937 -0.15250807 -0.1034954 -0.041620106 -0.06408272 0.14204086
-0.106560074 -0.07567826 -0.11485578 -0.15396968 -0.09596634 0.14131705 0.07335785 0.07967967
0.008645996 -0.08428465 0.027813792 -0.15349846 -0.11878915 -0.084752604 0.10372557 0.09639062
-0.07291013 -0.005931914 0.105143115 0.16343446 0.06524703 0.022209123 0.11022727 -0.0967985
0.030634776 -0.12745944 -0.11394265 -0.084925815 0.074386105 0.06611477 -0.09738215 0.049666107
0.09025045 -0.020750001 0.00627701 0.038092017 0.101989284 0.15785493 -0.12668973 -0.06024725
0.06461042 0.13621266 0.1430612 0.14505856 0.032717794 -0.1429585 0.015123472 -0.10284889
-0.15321231 0.14606725 0.12500237 -0.16399258 0.030770898 -0.027694657 -0.027053684 -0.07525477
0.06322065 -0.0973741 0.06026724 0.0831379 0.11768855 0.061470613 -0.16271147 -0.10664511
0.082086876 0.034408927 -0.12824503 -0.09466414 0.15465821 0.11077498 -0.07168209 -0.041376725
-0.15660615 -0.00295493 -0.12380212 -0.12681025 -0.0090583265 0.024683699 -0.06732636 0.097550675
-0.10004321 0.14917071 0.1126626 -0.13863486 -0.04091633 0.007418111 0.023985997 0.038991213
0.064514816 0.009847522 -0.08021499 0.077791795 -0.15769954 -0.09744038 -0.041153975 -0.08008094
-0.057512254 -0.13474497 -0.03497015 0.03514135 -0.10710031 -0.008436844 0.117685154 -0.016900256
0.004569009 -0.014182523 0.033271298 0.10453136 0.1557263 0.10440256 0.15608262 -0.011889607
-0.14768314 -0.07793781 0.11194013 -0.0010657161 -0.081713915 -0.12598088 -0.15385312 -0.13875408
-0.03334616 0.090157375 0.08888085 -0.15855162 0.10254912 -0.12864375 -0.034755632 -0.06665929
-0.031665757 -0.032278538 -0.14752342 -0.14194831 -0.025725067 0.002126038 -0.07468233 0.061928973
-0.14796868 -0.011094838 0.14457567 -0.06705703 0.1484528 0.05953771 -0.14836366 0.1040148
-0.018970728 -0.07338883 0.1314622 -0.13285004 0.017640814 -0.03442 0.11739938 0.045891076
0.07899459 0.058058977 -0.039533794 -0.034574002 -0.13547815 0.08907862 0.13052918 0.11248587
-0.115963474 0.007332176 -0.11589045 -0.090499036 -0.09579619 0.056182534 -0.09796752 -0.0035867244
0.0069159567 0.105975375 -0.12427249 -0.11286192 -0.09546017 0.11506833 -0.05909568 0.13866867
0.059447914 0.02081719 -0.0012237877 -0.032498643 0.020626545 -0.03753963 -0.001155138 0.02097617
-0.12859373 -0.08616667 0.13275097 -0.13341746 -0.011804864 0.16262983 0.059387 0.004654631
-0.1424698 0.08143963 -0.11709823 -0.046666995 -0.05515854 -0.024345413 0.0017982423 0.13559751
0.02052337 0.147251 0.10056491 -0.10393533 0.07373361 -0.116212994 -0.06967642 0.04835348
0.054283246 0.12333672 -0.052922644 0.0002631843 0.084636465 -0.15898897 0.11885728 -0.1359452
0.0022658259 -0.027950585 -0.0865845 0.021728784 0.13594459 -0.048057035 -0.0976027 -0.060801126

fc1.bias f4 [512]
00000000: 3895 1fbe 0a78 d13d d6f1 b53d 20af 1dbc
00000010: c0d0 1e3c 4a49 d8bd f23f ca3d 56a0 52bd
00000020: 00d6 0dba fbe1 0b3e 80e2 c7bd bf40 203e
00000030: b287 a93d aee0 cebd 4090 e1bd 540d 0fbe
00000040: 6691 ce3d 8038 bb3b 0000 c4bc e111 003e
00000050: 28d7 04bd e209 813d c00c f13c 909f 60bc
00000060: 8a98 b6bd 7aa9 e0bd 7893 19be 1781 033e
00000070: e9d6 183e 33d7 253e 72ff a23d c8b7 18bd
00000080: 4660 cabd 089f 26be 6ef0 81bd 5da2 e7bd
00000090: 0a82 39bd 933e edbd 005d f1bd a06e 84bb
000000a0: 168a ebbd b0e8 933c 405f b0bb 8fae 0b3e
000000b0: 5ea6 b93d 72cd 903d 3607 e1bd 4836 0b3d
000000c0: 6b6c bebd 7608 c83d 0d15 1b3e 7c73 04be
000000d0: 2f1f 113e 76aa cfbd 7503 8cbd 02d2 bebd
000000e0: 6cc7 593d 757a 13be ffce cebd b8a6 d63c
000000f0: 38df a4bd 4fd5 063e 9053 71bc b66a 823d
00000100: 50e2 8e3d 9a73 d8bd 9f5d 0c3e ea5c db3d
00000110: cc35 733d 33ed 19be f917 233e 0840 dfbd
00000120: 45e9 0b3e 9b7f 1b3e 0001 28bb 8a00 933d
00000130: 1016 fbbd 7a94 e43d f02a 4a3c 1c6f 0d3d
00000140: d860 bfbc 8a4a eb3d 2605 06be d852 e23c
00000150: e0bd 8b3d 8edc ca3d dc53 b6bd d0e3 743c
00000160: d846 483d 153a a8bd 9dcc a2bd 9889 a23c
00000170: 8000 a1bd b71f 283e 909c 243d 32f6 60bd
00000180: bcaf 1f3d aea8 90bd 10de 4cbc d430 363d
00000190: 72e9 853d b8f2 de3c 0050 1eb8 1151 8dbd
000001a0: f585 15be 0e22 fd3d 94c4 1fbd b27f 22be
000001b0: e2f9 f73d 4187 073e 3454 20bd 40b2 253b
000001c0: eb02 e5bd 2247 d63d d274 0bbe aae7 fb3d
000001d0: 18f9 643d 1d2f 0f3e ba56 afbd 2009 3bbc
000001e0: 0080 99ba 00d0 793d 886d 303d 1066 183d
000001f0: b788 273e e496 283d 5b2c c6bd b7d5 a0bd
00000200: dac7 bf3d 3b0d 1d3e cbec 19be b807 09be
00000210: 278d 06be ed74 023e 11fb cdbd 4e60 bd3d
00000220: 3cea 85bd 0a45 c93d a025 d5bb 2e05 55bd
00000230: 3e30 ee3d 1d61 233e a0f6 88bd aa18 f43d
00000240: 3c3c 09be b4d1 ffbd 800b 3b3b 57eb 0d3e
00000250: 0057 f93b 069e fb3d 9e4e c93d 0a90 d23d
00000260: cc0f 6b3d c59b 22be 3aae 00be ada3 0abe
00000270: 1863 1d3d 98ea d33c f0fc bb3c 546c 1ebe
00000280: d8ad 313d 82e5 c7bd 8711 22be 18b3 1b3d
00000290: 0081 fcbb d0fa fcbd 4026 6a3b 6800 913d
000002a0: 645b 21be 80a3 b8bb 0195 073e 5310 113e
000002b0: 19a7 8abd ae97 7bbd c30b b1bd 6d77 00be
000002c0: c266 a3bd d60c dc3d c690 ed3d e865 5bbd
000002d0: 2839 aa3c c911 cabd 9093 d2bc 6e5d d73d
000002e0: 2ec2 d13d e8f5 e8bc e455 06be 8098 bcbb
000002f0: 5a95 a5bd 0ca4 1f3d 93c7 193e 006d 823b
00000300: e8e1 00bd 509a bdbc a07d afbb 50fa 1b3d
00000310: 8088 1ebb 1d74 19be ef08 1a3e fd05 c4bd
00000320: 5f8f 243e 302e 30bc 90ce 1dbc e06e a53d
00000330: 90f3 93bd 00c6 c93a a016 79bd 5215 ebbd
00000340: faa0 d33d fe01 f63d 927f 983d c3b5 243e
00000350: c069 aa3d 0137 0e3e 1c80 1bbd 029f fc3d
00000360: b81d 2a3d 00f8 2ab9 ea5f fa3d 9bde 02be
00000370: e098 bfbb 5cbb 98bd 9322 263e 70ac a1bc
00000380: dcdf 6c3d 9e2d ee3d f696 af3d c7b0 84bd
00000390: 409f 823b eaf1 d13d 2425 8ebd 202e 5f3c
000003a0: a668 fdbd 4caa 133d 3ef4 e83d 402f 393c
000003b0: b05c d53c 11d4 0d3e c0c2 b83b d51e 81bd
000003c0: b393 003e e3bb f3bd 20c4 9e3d 525e da3d
000003d0: 80b6 d9ba 3d52 25be 6a66 973d 923d d53d
000003e0: c098 91bc 6652 e23d f826 843d 7820 153d
000003f0: 91c9 1b3e 657f a1bd 10cd d63c 8076 fdbd
-0.15584266 0.10227974 0.08884017 -0.009624273 0.009693325 -0.10560854 0.09875478 -0.05142244
-0.00054106116 0.13660423 -0.09759998 0.15649699 0.08277835 -0.10101448 -0.11013842 -0.13969928
0.10086326 0.0057135224 -0.023925781 0.1250682 -0.03243175 0.06300713 0.029425025 -0.013709918
-0.08915813 -0.10969825 -0.14997661 0.12842213 0.14925732 0.16195373 0.079588786 -0.037284642
-0.09881644 -0.16271603 -0.063446864 -0.11310265 -0.04529003 -0.11584201 -0.117853165 -0.004041508
-0.11500947 0.01805529 -0.0053824484 0.13640808 0.09064935 0.070704356 -0.109877035 0.033987314
-0.09298023 0.09767239 0.15144749 -0.12934679 0.14172052 -0.10139935 -0.06836597 -0.093173996
0.0531687 -0.14402182 -0.10098075 0.026202545 -0.08050388 0.13167308 -0.0147293955 0.0636801
0.069767594 -0.10568924 0.13707589 0.10711081 0.059377477 -0.1503189 0.15927114 -0.10900885
0.13663204 0.15185396 -0.0025635362 0.07177837 -0.122600675 0.11161132 0.012339339 0.03452979
-0.023361608 0.114888266 -0.13087901 0.027627394 0.06823325 0.09905349 -0.08902714 0.014946893
0.048895687 -0.08214203 -0.07949183 0.019841 -0.078614235 0.16418348 0.040188372 -0.05492229
0.038985953 -0.07063423 -0.012504116 0.04448016 0.06538667 0.027215347 -3.774464e-05 -0.06900228
-0.14601882 0.12360011 -0.03900583 -0.15869024 0.12108208 0.13235189 -0.039142802 0.0025283247
-0.11182197 0.10462786 -0.13618782 0.12300046 0.055901617 0.13982816 -0.08561464 -0.01141575
-0.0011711121 0.06098938 0.043073207 0.03720671 0.16360746 0.041159526 -0.09676429 -0.07853263
0.093642905 0.15337078 -0.15031736 -0.1338185 -0.13139783 0.12739916 -0.10057653 0.09246884
-0.06538817 0.09827621 -0.0065047294 -0.052006893 0.11630295 0.15955015 -0.06687665 0.11918767
-0.13401884 -0.124911696 0.002854079 0.13859306 0.007609248 0.12286 0.09829448 0.102813795
0.057388112 -0.15879734 -0.12566462 -0.13539 0.03842458 0.025868699 0.022947758 -0.15471011
0.04337868 -0.09760572 -0.15826999 0.038012594 -0.0077058077 -0.12352526 0.0035728365 0.070801556
-0.15757519 -0.005634725 0.13240434 0.14166383 -0.067701526 -0.06142395 -0.086448215 -0.12545557
-0.07978584 0.10744636 0.11599879 -0.053563982 0.020779207 -0.098666735 -0.025705129 0.10515867
0.10242115 -0.02843757 -0.13118702 -0.005755484 -0.08085127 0.038974807 0.15017538 0.003980279
-0.03146544 -0.023144871 -0.005355552 0.038080513 -0.0024190247 -0.149857 0.1504247 -0.09571455
0.16070317 -0.010753199 -0.009631768 0.08077788 -0.0722419 0.0015394092 -0.060812593 -0.11478676
0.10333438 0.12012099 0.07446207 0.16084962 0.083209515 0.1388817 -0.03796397 0.12335016
0.04153225 -0.0001630485 0.122253254 -0.1278023 -0.0058470815 -0.07457611 0.16224127 -0.019735545
0.057830676 0.116297945 0.085737154 -0.0647903 0.0039862692 0.102512196 -0.06940678 0.013621837
-0.12373476 0.03605108 0.113747105 0.011302769 0.026045173 0.13850428 0.0056384504 -0.06304709
0.12556343 -0.11901071 0.077522516 0.106625214 -0.0016610175 -0.16144653 0.07392581 0.10412134
-0.017773032 0.110508725 0.06452745 0.036407918 0.1521361 -0.07885627 0.026220828 -0.12376118

fc2.weight f4 [256, 512]
00000000: d0a6 373b f7ff 99bc b8b5 913c 0a7b 10bd
00000010: feb6 83bc a8a8 b0bb bda0 2e3d 1add 1dbd
00000020: 384c 863c 1906 333d 14e6 1cbc b776 c0bc
00000030: 4eb2 edbc 280d 13bc c5cc 123d 6b8e e5bc
00000040: 9586 2c3d 6abc 0ebd c91d 153d 30de 283b
00000050: 44ac 4cbc 3672 13bd ddd9 b3bc f457 e4bc
00000060: d43f 1fbd 80a4 72bc 510d 053d 899d 20bd
00000070: b79b 0e3d 740d 3f3c 260f ca3c f8aa a4bb
00000080: d14f acbc becd a23c f564 043d 0caa 4c3c
00000090: 3a4d af3c 91fb 343d 2029 053c b131 b4bc
000000a0: 1e9c c03c 5bbc c4bc 5911 193d 60c0 e93b
000000b0: d6b4 a63c b87b de3b 61d2 193d 06d3 c13c
000000c0: f225 f83c 2722 acbc 6813 003c baaf f83c
000000d0: 8a0f fe3c 344b 6bbc b1ff 083d 0ec3 24bd
000000e0: dffa 0a3d 0bcd 90bc bd8f f9bc 9fba 173d
000000f0: 8032 1cba 998f 8dbc 22b3 be3c ef5b 013d
00000100: 90f4 ac3b fdaa 01bd 1121 a2bc 8129 c7bc
00000110: 3803 813c 32f8 29bd 316d c2bc 2d82 2ebd
00000120: 0069 e4b9 ab16 243d fc86 683c 8871 953b
00000130: d244 a73c 9680 e7bc fcac 21bc 4f5a 0d3d
00000140: 279a 17bd cce3 30bd b459 6ebc 943d 22bd
00000150: 28d8 18bc 1e5a f03c 00d5 04ba 2ccd 3c3c
00000160: 5899 c43b 5ed4 f8bc 70e8 b5bc f87c a93b
00000170: 374a 1e3d f68d 04bd 6227 ee3c 177d ddbc
00000180: ffb3 1cbd 448f 083c 0d3e 013d 5802 e13b
00000190: 6eed dc3c f0c2 583b 30cd c9bb f891 2d3c
000001a0: d418 313c 8466 3fbc b899 273c b0c4 313b
000001b0: de42 23bd f3e5 043d 36fa 28bd 60e9 673c
000001c0: 7951 0dbd 201b 0cbc ce07 a63c bec1 833c
000001d0: f193 093d 16d4 85bc 3061 5e3c 96c0 a13c
000001e0: 3f7e 27bd 41db d1bc 5ee4 bb3c f8cc fe3b
000001f0: a8b4 eebb 5c6c 3dbc ec3e 8f3c 823c fe3c
00000200: 754c 063d 324c cc3c 9011 4b3c ed70 0dbd
00000210: 6a6e d03c 920c 9ebc 2efd ce3c df58 fdbc
00000220: 781a 6d3c 800f a5ba cd0c 033d d021 9e3b
00000230: da81 b23c 2ec1 28bd e461 5a3c 0800 32bd
00000240: 4a92 25bd 35b2 33bd 7896 02bd d5f0 96bc
00000250: 64e8 3a3c 9830 bf3b 6e52 55bc cc02 863c
00000260: ff8b 27bd c9df 233d 9e94 c1bc 0851 97bc
00000270: 60f6 c63a 87ac 8abc 1242 863c 38fd 8fbb
00000280: 1211 b03c 581a d8bb 2d27 8bbc 68bb c33b
00000290: 2e5c 8a3c 7a36 c33c 00ba c338 5a00 e03c
000002a0: bfb4 bfbc 34e9 3cbc 6d2e 34bd 1401 09bd
000002b0: 142c 1bbd fa59 f7bc 74e3 6f3c 7343 d3bc
000002c0: b735 30bd e8ce 28bd a77d 15bd 4c6e 4b3c
000002d0: 2581 83bc 2099 c03a b0c1 943c 9b2f 133d
000002e0: 2f53 dfbc 5544 023d 7ee9 a43c 00e5 57b9
000002f0: cab5 87bc 3c5e 533c c0ec 8d3a 4245 823c
00000300: 3304 17bd fcf3 91bc 00d3 afbb e407 30bd
00000310: a8c3 00bd 0c8e 4d3c 97b5 25bd 5674 ce3c
00000320: 03a0 263d 009d 85ba c466 04bc 3082 9dbb
00000330: 7ce5 6bbc 65ae 2d3d 66b8 cabc 9d2c 09bd
00000340: c6e1 96bc 2890 a5bb 4775 d3bc 4cc8 36bc
00000350: ae1f 60bc e1ca 143d 627b 9fbc c8f2 823b
00000360: 80d5 e9ba f061 93bb 1188 04bd c008 863c
00000370: aacf e93c 009b 7aba 6025 2abc 4e11 803c
00000380: a064 d53a b8ca b2bb fc10 4b3c eaf9 b73c
00000390: c647 a93c 1e42 bfbc e07a 353c f237 98bc
000003a0: dc7e 0f3c 6cc6 80bc 8016 6bba 50b0 433c
000003b0: 20a5 e1ba 28ac 17bd f6d3 02bd 666a 5fbc
000003c0: 45f8 dbbc d1f0 2abd 347a 0bbd 8c19 99bc
000003d0: feca e4bc 06d9 ae3c c660 963c 7914 2fbd
000003e0: b04c 3dbb 4836 86bb 009e 033a 5afa b23c
000003f0: 78f2 92bc 454e 333d 9eb0 c73c fc7e 30bd
0.0028023012 -0.018798811 0.017786846 -0.03527359 -0.016078468 -0.005391199 0.04263376 -0.038540937
0.016393766 0.043706987 -0.009576339 -0.023494108 -0.029015686 -0.008975305 0.035839815 -0.028022012
0.042120535 -0.034847654 0.03640536 0.00257672 -0.012492243 -0.035997592 -0.021954471 -0.02787397
-0.03887923 -0.014809728 0.032483403 -0.039212737 0.03481647 0.011660922 0.024665426 -0.005025264
-0.021034153 0.019873496 0.032322843 0.012491714 0.02139913 0.044185225 0.008127481 -0.021996351
0.023511942 -0.024015596 0.03737006 0.0071335286 0.020349901 0.006789651 0.03755415 0.023660194
0.030291531 -0.021012379 0.007817127 0.03035723 0.031013269 -0.014361192 0.03344697 -0.04022508
0.033930656 -0.017675897 -0.030464048 0.03704321 -0.0005958453 -0.017280387 0.023278777 0.031581815
0.0052781776 -0.031657208 -0.019791158 -0.024311783 0.015748605 -0.041496463 -0.023733707 -0.042604614
-0.0004356578 0.04006068 0.014192339 0.004560653 0.020418558 -0.028259557 -0.009867903 0.034509953
-0.037012246 -0.043185994 -0.014547754 -0.039609507 -0.009328879 0.029339846 -0.000506714 0.011523526
0.0059997253 -0.030374702 -0.022205561 0.005172368 0.038644996 -0.032361947 0.029071514 -0.027037187
-0.038257595 0.008334938 0.031553317 0.0068667345 0.026968684 0.0033075176 -0.0061584935 0.010593884
0.010809142 -0.0116821565 0.0102295205 0.0027125292 -0.03985869 0.03244586 -0.041254245 0.014154762
-0.034501527 -0.008551389 0.020267393 0.016083594 0.033588354 -0.016336482 0.013572976 0.019745152
-0.040891882 -0.025617244 0.022936042 0.007775899 -0.0072847195 -0.011561479 0.017486058 0.031034712
0.03278776 0.024938677 0.012394324 -0.034531523 0.025443275 -0.019293103 0.02526721 -0.030926166
0.014471643 -0.001259312 0.03199463 0.004825808 0.021790434 -0.041199856 0.013329003 -0.04345706
-0.040422715 -0.043871123 -0.03188178 -0.018425385 0.011407945 0.0058346502 -0.013020141 0.016358756
-0.040904995 0.04000834 -0.023630437 -0.018471256 0.0015179627 -0.01692797 0.016388927 -0.0043941997
0.021492515 -0.0065949373 -0.016986454 0.0059732683 0.016889658 0.023829687 9.33297e-05 0.027343918
-0.023401616 -0.011530209 -0.043989588 -0.033448294 -0.037883833 -0.030194271 0.014641631 -0.025788998
-0.043019976 -0.041212946 -0.036496785 0.012416434 -0.016052792 0.0014694072 0.018158764 0.035934072
-0.027261345 0.031803448 0.020130869 -0.00020589307 -0.016566176 0.012900885 0.0010828003 0.015902165
-0.03686924 -0.017816536 -0.0053657293 -0.042976275 -0.031436592 0.012546074 -0.04045638 0.025201958
0.040679943 -0.0010193884 -0.008081142 -0.0048067793 -0.014397975 0.042402644 -0.024746131 -0.033489812
-0.018418204 -0.005052585 -0.025812758 -0.011156153 -0.013679428 0.036326293 -0.019468013 0.003996227
-0.0017840117 -0.004497759 -0.032356326 0.016361594 0.028541405 -0.000955984 -0.010384887 0.015633252
0.0016280599 -0.005456295 0.012394186 0.022458035 0.020664107 -0.023346957 0.011076659 -0.018581364
0.008758273 -0.015719615 -0.00089678913 0.011943892 -0.0017215349 -0.037029415 -0.031940423 -0.013636207
-0.026851783 -0.041733567 -0.03405209 -0.01868894 -0.027928825 0.02134372 0.018356692 -0.042744134
-0.002888482 -0.0040958263 0.0005020797 0.021847893 -0.017937884 0.043775816 0.02437621 -0.04308985

fc2.bias f4 [256]
00000000: 3019 29bc 7e47 a63c 3075 1e3c a0e6 713b
00000010: ab52 18bd 3e5b bdbc ec97 34bd b06e 0e3b
00000020: 64f4 0abd 8004 d3ba b813 28bc 396e 0e3d
00000030: 989a fabb f881 633c 6854 973b 30d0 f6bb
00000040: 56a5 c83c 9079 3b3c 76eb e0bc 0adf cd3c
00000050: b489 803c 8621 c03c dd77 103d 4025 e63b
00000060: 8834 17bc 3215 ad3c 46ac 73bc 8093 353b
00000070: 18e5 e3bc 60f7 ab3a 2fa9 d9bc c645 61bc
00000080: e9df 323d da90 e13c 18c9 07bd 2913 29bd
00000090: 37da 133d 2841 21bc 9ea6 f53c 7741 213d
000000a0: 483f 00bd 0e39 9f3c 5836 5a3c e457 ddbc
000000b0: 41f2 b4bc 24c7 12bc 3f69 153d 00ff e73a
000000c0: 00d8 c4b7 b004 0a3b 56b9 f53c 2808 883c
000000d0: b050 3ebb c03f f13a 57e3 193d 9233 bd3c
000000e0: 054c 003d 951f 163d 09f9 10bd 6816 78bc
000000f0: 3972 06bd 4505 2e3d b80b 6b3c b60d de3c
00000100: c0e5 f8ba 2033 81ba c422 923c 2eda ea3c
00000110: 40cd 853c f6e1 f1bc 30a0 a7bb 08ee 643c
00000120: 9878 903b 0bde 0d3d 870e 8fbc cd0e 193d
00000130: cc7f 083c c4fd 05bc 10d5 ba3b acc8 593c
00000140: 4c89 f5bc 9414 6a3c 22dd eabc 4272 c7bc
00000150: 18ea 023c 48cd 99bb 12d6 2dbd 33e1 0b3d
00000160: fb0d 2ebd 00fc 68bb f862 1c3c 087a 1dbd
00000170: c0a0 fbbb e1ca 1e3d a0e4 9d3b 803e 96b9
00000180: ed80 bbbc 5a58 eebc e4f0 49bc f03d fb3b
00000190: 487f 563c 3c1b 8bbc 32e4 a2bc 7efd 00bd
000001a0: 346b 693c 87d5 0c3d 502c f6bb 2a02 eabc
000001b0: 2b05 053d 1091 f73b fc3a 26bd c4b4 fabc
000001c0: f0fb 653b dc49 513c c8be a7bc b027 343b
000001d0: 0d67 2dbd 1ca5 23bc 5478 16bc 12f8 ed3c
000001e0: bc9f 8a3c 185c b5bb 6408 36bc 9de8 dbbc
000001f0: cd10 92bc dca1 6d3c 301a dc3b f224 a83c
00000200: 4131 30bd ae81 15bd e8ef 573c eec0 fe3c
00000210: 10c6 38bc 3c38 3fbc 6a40 5fbc 9ed0 cb3c
00000220: 40e7 85bb fe1a 933c a577 313d 0e3a f33c
00000230: 1f38 cdbc 6677 1abd 9098 73bc a8fc c2bc
00000240: 307c 233c 04d5 3e3c 07b9 9ebc 4021 42bb
00000250: c2b2 aabc 8835 843c 0e18 2bbd 50bf 6abb
00000260: c8f1 24bd f51d 90bc f633 aa3c 879f 0f3d
00000270: 2a77 b73c 0912 18bd 129a b53c 9687 d3bc
00000280: db9a 0fbd 79de 283d fa4f d43c 0023 61b9
00000290: 442f 15bd 1bff 31bd ce6d 02bd 0051 85bb
000002a0: fe51 34bd 6ea1 93bc ef20 163d 982c 173c
000002b0: 1d57 133d efb8 dcbc c0d9 5bbb 629d ed3c
000002c0: e253 1dbd 2a24 01bd 6ff2 2bbd a800 26bd
000002d0: 5086 27bb c666 28bd c07d c63a 9edf a03c
000002e0: 00bf adba 66a4 2abd 97a0 163d 1aeb 803c
000002f0: 18dd 893c 6f88 e8bc a0f8 87bb d81b 5bbc
00000300: 6f84 c7bc 75e8 17bd 9e59 ca3c 0810 30bc
00000310: 60d1 b93b 60d5 f7ba 3ce4 d8bc b1fa 203d
00000320: 00d4 23bd a06d 583b 5bc1 303d 1c5a 793c
00000330: d03a ca3b bc21 003c a82d 46bc 0e67 0bbd
00000340: 2073 1cbb e242 03bd fe04 17bd 30c9 4b3c
00000350: 9866 0cbd 72d2 803c e2e4 26bd a978 c4bc
00000360: e0c0 723b e315 273d 86ad e13c 99a3 113d
00000370: 5835 80bc 6fc2 aabc 2aad c53c 20ad 2cbb
00000380: eeb1 cbbc d535 efbc ad73 18bd 980f 1abd
00000390: 3292 f53c 6aa2 18bd 9821 233c a02a a6ba
000003a0: 7674 05bd 71f4 1dbd 663a dd3c a948 053d
000003b0: 4116 ebbc acb6 873c b09c 083b 4455 003c
000003c0: 1c5f 0dbd 9c42 05bd eb08 313d 60ba 26bb
000003d0: 3c42 773c 0608 97bc 5495 0bbc ba89 8e3c
000003e0: 3b3c efbc 92e8 19bd 4186 07bd 7e78 993c
000003f0: 8093 573a 0046 a339 c595 0f3d 0004 63ba
-0.010320947 0.020297762 0.009671494 0.0036911145 -0.037188213 -0.023114797 -0.044090196 0.0021733455
-0.033924475 -0.0016099364 -0.010258608 0.034773085 -0.0076478235 0.013885967 0.0046182163 -0.007532142
0.0244929 0.011442557 -0.027456027 0.025130767 0.015690662 0.023453485 0.03527056 0.0070234835
-0.009228833 0.02112827 -0.014872616 0.0027706325 -0.027819201 0.0013119988 -0.02656993 -0.013749545
0.04367057 0.02753489 -0.033150762 -0.04127804 0.036096778 -0.009842195 0.029986676 0.039369073
-0.03131035 0.019436385 0.013318621 -0.027019449 -0.022088172 -0.008958612 0.036477324 0.0017699897
-2.3465604e-05 0.0021059923 0.029995602 0.016605452 -0.0029039793 0.001840584 0.037570324 0.02309588
0.031322498 0.036651213 -0.03539375 -0.015142061 -0.032823775 0.042485494 0.014346056 0.027106147
-0.0018989369 -0.0009857155 0.017838843 0.02866849 0.016333222 -0.029526692 -0.0051155314 0.013972767
0.004408907 0.034635585 -0.017462982 0.03736763 0.00833125 -0.008178178 0.0057016686 0.013292473
-0.029972695 0.014287133 -0.028669897 -0.024346475 0.007990383 -0.004693661 -0.04244048 0.034150314
-0.0424938 -0.0035550594 0.00954508 -0.038446456 -0.007679075 0.0387677 0.004818514 -0.00028656796
-0.022888625 -0.029094864 -0.012325499 0.0076672956 0.01309187 -0.01698076 -0.019884203 -0.03149175
0.014246751 0.034383323 -0.0075126067 -0.028565485 0.03247563 0.0075551346 -0.040583596 -0.030603774
0.0035092793 0.012773957 -0.020476714 0.0027489476 -0.042334605 -0.009988096 -0.009183962 0.029048953
0.01692187 -0.00553466 -0.011110399 -0.026844317 -0.017830277 0.014503922 0.006716989 0.02052543
-0.043015722 -0.036500625 0.013179757 0.031097855 -0.0112776905 -0.011671122 -0.013626197 0.02487975
-0.004086405 0.017957207 0.043326993 0.029690769 -0.025051175 -0.037711523 -0.014867917 -0.023802117
0.009978339 0.011647467 -0.019375337 -0.002962187 -0.020837191 0.016138807 -0.041770987 -0.0035819598
-0.040269643 -0.01759241 0.02077673 0.035064247 0.022395689 -0.037126575 0.022168193 -0.025821488
-0.03505979 0.04122779 0.025917042 -0.0002147071 -0.03642203 -0.04345618 -0.031843 -0.004068494
-0.044023506 -0.018021312 0.0366525 0.009226941 0.03597175 -0.026943652 -0.0033546537 0.02900571
-0.038410075 -0.03152863 -0.04197925 -0.04052797 -0.0025562234 -0.041113637 0.0015143678 0.019637879
-0.0013255775 -0.04166069 0.036774244 0.015737105 0.016829059 -0.02838537 -0.0041495115 -0.013373338
-0.024355141 -0.037086923 0.024700936 -0.01074601 0.0056707114 -0.0018908195 -0.026476018 0.039301578
-0.0399971 0.0033024326 0.04315315 0.015219238 0.006171562 0.007820543 -0.012095846 -0.034033827
-0.002387233 -0.032046206 -0.036869995 0.012438104 -0.03427753 0.015725348 -0.040745623 -0.023983316
0.0037041232 0.040792357 0.027548563 0.03555641 -0.015650436 -0.020844666 0.024130423 -0.0026348308
-0.024865117 -0.029200474 -0.037219692 -0.037612528 0.029976938 -0.037264265 0.00995674 -0.0012677498
-0.03258177 -0.038563196 0.027005386 0.032539997 -0.028697135 0.016566597 0.0020845346 0.007832829
-0.03451453 -0.032534227 0.043221395 -0.0025440678 0.015091475 -0.018436443 -0.008519489 0.017399658
-0.029203525 -0.037575312 -0.03308702 0.018734213 0.00082235783 0.00031141937 0.03505494 -0.0008659959

fc3.weight f4 [128, 256]
00000000: 14ac f73c 1060 4ebd 0000 9e3a 6048 323c
00000010: 8039 143d a40c da3c 486d 7c3d 44dd 1dbd
00000020: 50f1 723d 6cae ed3c 38f5 2ebd 905d 2cbc
00000030: d885 4fbc f0f4 26bd ca85 5bbd 2883 64bc
00000040: b229 6b3d b8bb 1dbc 2497 853c 202b 4b3c
00000050: a0c5 f4bb aa49 2dbd 9087 45bc b466 24bd
00000060: d09e 0f3c 2abf 7ebd a8c6 773d 4469 edbc
00000070: 10ee 90bb 40f0 f1ba 4c92 f5bc 90d1 853b
00000080: 608f eb3b 40df 3fbc 987e 2cbc b419 4dbd
00000090: 7893 47bd 5095 ed3b fc9f 5cbd dc09 843c
000000a0: 488d 083d 30c8 c4bc 0414 833c 0430 b03c
000000b0: 2c79 523d 20b4 96bc a0f4 de3c a04a 113b
000000c0: dc2e ffbc f4e2 fabc 282d 323c 2254 42bd
000000d0: 601d 443b 8802 73bc ccae babc 30ff a2bb
000000e0: 36d3 523d 7634 793d 706c 7fbc 2058 9ebc
000000f0: 64aa 7a3d e4e1 b83c 56d6 563d c8fb fb3c
00000100: 2454 c4bc 68c7 c63c 2c0b fa3c 74bf 86bc
00000110: eae6 753d 8055 823b 3641 293d 9e40 60bd
00000120: 3258 073d 78c3 72bd 54ec 273d ce7f 78bd
00000130: 343e c3bc a02a 76bb 9698 1bbd 883b 1f3c
00000140: 0027 c739 105d 5e3d fadc 4ebd e602 6f3d
00000150: 60ee 21bc 7808 95bc 2022 c03c 8035 113c
00000160: f017 02bd d89c 9a3c 6065 0ebb e80c 703d
00000170: 405b 17bc e035 b23b 74ce 963c 72b3 67bd
00000180: deb1 073d a88a a43c f82a 843c b2d0 3d3d
00000190: a0c1 583b 44d0 af3c e888 48bd 2cbd ff3c
000001a0: 6652 593d 5009 c83b 30fd 27bd 4c7c 2c3d
000001b0: 1c99 fc3c bccb f7bc f205 2a3d 0453 5bbd
000001c0: 4035 7bbc 88e0 3bbd ca08 143d e0f3 393c
000001d0: 8023 90ba a252 423d 9800 aa3c 7408 f8bc
000001e0: 786e e03c 809b 423c 12df 01bd c037 473c
000001f0: f698 68bd e0cd 143c d820 b63c 80b3 b4bb
00000200: 8897 69bc e8ed 673c a23e 00bd a036 70bd
00000210: fc85 88bc 5841 033c a06e dd3b c8e0 ab3c
00000220: f4a2 753d 94b1 5b3d e008 173c 244d c53c
00000230: 0084 4c3c 92e7 2cbd 3c34 8dbc d4f8 ef3c
00000240: a858 65bc a838 463c 2c93 dcbc 3050 753d
00000250: 723b 603d becb 353d 54e2 b4bc a80b 0a3d
00000260: 70d3 1e3d ea77 05bd 7483 3b3d 38eb 3cbc
00000270: 32b9 28bd dccc 813c e4b8 b4bc 0401 47bd
00000280: 9258 03bd 2ef8 00bd 30da 453d b08b 073d
00000290: baef 3e3d 6208 493d 9a26 5bbd 7c21 803c
000002a0: 00af 24bb 8e6d 093d 6cc8 423d 584e febc
000002b0: 2a17 6f3d 58c9 c9bc 4aef 61bd 486e aebc
000002c0: 6cb1 2d3d 2002 313b cc04 c5bc 804e 7a3b
000002d0: a0bb 9ebb fe1d 32bd c877 4e3d baa4 61bd
000002e0: 7c19 6dbd 7066 56bc 349d 9d3c 1ca1 ea3c
000002f0: 929e 06bd 5c65 1ebd 2040 35bc c835 cf3c
00000300: 2647 4d3d da54 613d b4e1 f73c 62a1 313d
00000310: 4e2f 48bd 0a09 313d de39 693d 704b 633c
00000320: 80e6 4b3a 6ed2 613d d0df db3b 90d1 1fbc
00000330: 44b1 7bbd b8e5 b93c a482 d13c b6ea 563d
00000340: 2cca e03c 2c11 4d3d 54a1 aa3c 0010 b33b
00000350: a445 7c3d 1833 2cbd 0cd9 07bd 88dd 403d
00000360: 0cf0 c2bc 8c8a d23c 040e 573d a80b 71bd
00000370: e8cf 38bd 9c86 8ebc 58d5 25bd 5643 4fbd
00000380: 308c 53bc c08f 263c 8439 efbc 022f 1fbd
00000390: d04e a5bc 1861 743c 6c43 a93c 4438 5b3d
000003a0: c45e 993c 703d d13b daf6 4ebd 3677 2cbd
000003b0: 40b1 20bc e67c 163d 7adb 13bd 50e1 dd3b
000003c0: 4ad3 03bd 3007 61bd 7cbe 283d ee2f 133d
000003d0: d067 c3bb b481 43bd 3881 5ebc 705d 583d
000003e0: 6004 d73b 186c 623c f024 b93c 08fe 2b3d
000003f0: 18ea 5e3c daad 08bd 74a4 323d a097 56bd
0.03023342 -0.05038458 0.0012054443 0.010881513 0.03618765 0.026617356 0.061627656 -0.038541093
0.059312165 0.029013835 -0.042714328 -0.010520354 -0.012666188 -0.040760934 -0.053594388 -0.013947286
0.05741281 -0.009627275 0.016307421 0.0124004185 -0.007469848 -0.04230658 -0.012056246 -0.040137008
0.008765891 -0.062194027 0.060492188 -0.028980859 -0.0044229105 -0.0018458441 -0.029976986 0.0040838197
0.0071887225 -0.011710942 -0.010528229 -0.05007334 -0.04872462 0.0072504655 -0.05386351 0.016117983
0.03333786 -0.024021238 0.016000755 0.02150727 0.05138509 -0.018396437 0.027216256 0.0022169724
-0.031150274 -0.030625798 0.010875024 -0.047443517 0.0029924735 -0.0148321465 -0.022788428 -0.0049742684
0.051470958 0.060841046 -0.015589818 -0.01932913 0.061197653 0.02256865 0.0524505 0.030759707
-0.023965903 0.024265006 0.030522905 -0.016448714 0.06003467 0.0039774776 0.041321956 -0.054749124
0.033043094 -0.059268445 0.040996864 -0.06066876 -0.023833372 -0.0037562028 -0.037987314 0.009718783
0.00037985295 0.05428797 -0.05050371 0.058352374 -0.009883493 -0.018192515 0.023453772 0.008862853
-0.03176111 0.018873617 -0.0021727905 0.05860606 -0.009238064 0.0054385513 0.018408991 -0.056567617
0.03312861 0.020085648 0.01613377 0.046341605 0.0033074394 0.021461613 -0.04895869 0.031218134
0.053057097 0.0061046258 -0.041012943 0.042110726 0.030834727 -0.030248515 0.041509576 -0.053545967
-0.01533252 -0.045868427 0.036141194 0.011349648 -0.0010996908 0.047442086 0.020752236 -0.030277468
0.027396426 0.011877894 -0.031706877 0.012159288 -0.0567865 0.009082288 0.022232458 -0.005514562
-0.014257319 0.014155842 -0.03130973 -0.058645844 -0.016665451 0.008011185 0.0067575723 0.020981207
0.059969857 0.05363615 0.009218425 0.024084635 0.012482643 -0.04221303 -0.017236821 0.029293455
-0.013998188 0.012098469 -0.026925646 0.059890926 0.05474419 0.044383757 -0.022080578 0.033702523
0.03877586 -0.032585062 0.04577966 -0.01153069 -0.04119224 0.015844755 -0.022060819 -0.048584953
-0.03206689 -0.031486683 0.048303783 0.0330922 0.04661534 0.04908026 -0.05350361 0.015640967
-0.0025128722 0.033551745 0.04755442 -0.031043217 0.0583717 -0.024632141 -0.055159844 -0.02129282
0.04240553 0.0027009323 -0.024050139 0.0038193762 -0.004844144 -0.043485634 0.0504072 -0.055088736
-0.057885632 -0.013085946 0.01924 0.028641276 -0.03286607 -0.038670883 -0.011062652 0.0252942
0.05011668 0.05501256 0.03025899 0.043366797 -0.04887324 0.04322151 0.056939952 0.013872966
0.00077781826 0.055132322 0.00671003 -0.009754553 -0.06144835 0.022692546 0.02557499 0.05246993
0.027440153 0.050065205 0.02082888 0.005464554 0.061589852 -0.042040914 -0.033165976 0.04708627
-0.023796104 0.02570083 0.0525036 -0.058849007 -0.04512015 -0.017398171 -0.040486664 -0.050601326
-0.012911841 0.010166109 -0.02920223 -0.03886319 -0.020179182 0.014915727 0.020662032 0.053520456
0.018721946 0.0063854977 -0.050528385 -0.042105876 -0.009807885 0.036740206 -0.03609798 0.006771244
-0.032183923 -0.054938495 0.041197285 0.03593438 -0.005963303 -0.047731116 -0.013580613 0.052823484
0.006561801 0.013819717 0.022600621 0.04199031 0.013605617 -0.033368923 0.043613866 -0.052390695

fc3.bias f4 [128]
00000000: b228 5ebd a440 23bd 42a1 6dbd fc33 ea3c
00000010: 70ee 0bbc 20d6 313c e093 053b a062 3a3d
00000020: 70be 48bd 8095 ec3b f217 6a3d 0474 c93c
00000030: c8df ae3c b055 67bd fe93 373d 46a5 373d
00000040: d6b4 74bd 58de 26bd 4094 093c f0e1 33bd
00000050: 5a6d 01bd e40e a03c 2846 4cbd 54a7 983c
00000060: 2a2f 47bd 3850 063d 5c1a 64bd dc4d 74bd
00000070: c85b 983c 9020 0ebd ca16 45bd dc79 7abd
00000080: 0cac f8bc 749a 7abd e46d bfbc b074 323c
00000090: 8060 fd3b ccfb 433d 50ca 663c f20b 6f3d
000000a0: 0808 783d 8c44 053d 001d 15bd 4099 58bd
000000b0: 2c57 d93c cce3 483d e8ad d2bc ec24 503d
000000c0: b6fe 453d c83c 23bd e0ce 7d3b b8ab 1c3c
000000d0: 4a36 0abd 10ca b8bb 005a 62bc 66d6 3f3d
000000e0: 9297 773d c46d 973c 0afa 2c3d 98fc 413d
000000f0: a871 1bbd 8e6e 08bd aca2 383d b4e8 25bd
00000100: 9a1a 2e3d a866 cf3c fce3 6dbd 7011 d6bc
00000110: be80 47bd a098 133d 94b7 f83c 8cfe 0cbd
00000120: ccc0 5f3d c08d 453d 94ef 7bbd c88b 64bc
00000130: 7c22 7bbd 8012 bebb 68f6 bebc 12f1 6cbd
00000140: 6c56 aabc b00e 42bc e08f 48bb e40d 823c
00000150: e091 2cbc a22c 22bd 7075 013d 30f1 f43b
00000160: 583e 973c 0000 963b b0c7 69bc ecdf a4bc
00000170: 8097 17bd c05f 95ba 70ad fabb a02a 353b
00000180: 8806 9fbc f46f e4bc c01b 7fbd 9447 ac3c
00000190: 1419 01bd d896 df3c 6041 fe3b a486 63bd
000001a0: 305d 4fbd e036 a6bb dad1 5ebd 6ed0 14bd
000001b0: 8078 9d3a b2bb 1b3d 28f7 4fbc 4858 013d
000001c0: a625 26bd d880 02bc 8a8c 263d 40bb be3a
000001d0: 3223 213d 8650 223d 2089 d13b 5a2d 69bd
000001e0: 703c 4cbd 101d 213c d45e 893c b2ea 183d
000001f0: 3801 69bd ce60 673d 5a11 5abd b047 ef3b
-0.05423803 -0.039856568 -0.058015116 0.028589241 -0.008540735 0.010854274 0.002038233 0.045504212
-0.04900974 0.00721997 0.057151742 0.024591453 0.021346942 -0.056478202 0.04481887 0.04483535
-0.05974277 -0.040739387 0.008397162 -0.043916643 -0.031598426 0.01953835 -0.049871594 0.018634476
-0.048628964 0.032791346 -0.0556892 -0.059644565 0.018598452 -0.034699023 -0.048117436 -0.06115137
-0.030355476 -0.061182454 -0.02336783 0.010892078 0.007732451 0.047847554 0.014086321 0.058361
0.060554534 0.032536075 -0.03640461 -0.052880526 0.026530825 0.04904537 -0.02571769 0.05081646
0.048338614 -0.039852887 0.0038728043 0.009562425 -0.03374318 -0.005639322 -0.013815403 0.046835326
0.060447283 0.018484958 0.042230643 0.047360033 -0.037950188 -0.03330856 0.04507701 -0.040505126
0.042505838 0.025317505 -0.05807875 -0.026131362 -0.048706762 0.036034226 0.030360974 -0.034422442
0.054627225 0.048230886 -0.061507776 -0.013949342 -0.061312184 -0.005800545 -0.023310855 -0.05784709
-0.020793162 -0.011844322 -0.0030603334 0.015875764 -0.010532826 -0.039593346 0.031606138 0.007475041
0.018462345 0.0045776367 -0.014268801 -0.020126306 -0.037009716 -0.0011396334 -0.00765007 0.0027643815
-0.019412294 -0.027885415 -0.062282324 0.021030225 -0.031518057 0.027293608 0.007759258 -0.055548325
-0.05062598 -0.0050724596 -0.05439935 -0.036331587 0.0012014061 0.038020797 -0.012693204 0.031578332
-0.040563248 -0.007965289 0.040661372 0.0014551654 0.039340205 0.039627574 0.0063945204 -0.056928016
-0.049862325 0.009833589 0.01676885 0.037333198 -0.056885928 0.056488805 -0.053239204 0.007302247

out.weight f4 [4, 128]
00000000: 4e04 94bd a0ac ba3c be1e 7c3d d05a b53c
00000010: 9f06 923d b8bb 43bd ed8d adbd d005 c7bb
00000020: 95a8 96bd cc0b 97bd b25c 31bd 6006 aebb
00000030: 4bca 943d 7064 a2bc e387 813d 2ac7 7f3d
00000040: 8999 9e3d 041f 85bd 0194 8b3d 458f 2abd
00000050: c810 64bc 3631 aabd 766d 3d3d 809e a83b
00000060: d427 8bbd cf96 93bd 20cb e9bb 930b 803d
00000070: 808e 61bc fca3 76bd 029f e3bc cae5 043d
00000080: 68fa ad3c b6cd 233d 3597 16bd 8aca 01bd
00000090: 2ac2 1a3d 009a f9b9 b32a 44bd a064 97bc
000000a0: b004 c53c 2119 2ebd 4de0 2cbd 3d67 9b3d
000000b0: 1d0d 8dbd 1283 043d ba14 343d 706e 2d3c
000000c0: 72d3 773d 60e2 db3b 8b97 993d 6a05 7d3d
000000d0: 289b 42bc 9945 823d 6d77 9abd 20c0 023c
000000e0: a402 26bd ab87 b03d c025 1c3b 00db bb3c
000000f0: 40f0 1dbb 53d4 8bbd 85e4 ad3d b0b9 36bd
00000100: b487 9cbd d5cc 32bd db25 98bd 04ee 953c
00000110: 20c7 063b 3e5a 203d 48d7 d9bc 848f 123d
00000120: 64a3 adbd 2e04 32bd 0a39 68bd e504 ab3d
00000130: c081 ad3c a6b1 343d 887d 2fbc b5bd adbd
00000140: 3435 f5bc 9c7f b53c 0262 363d 8445 babc
00000150: 55ad a43d c0a0 783c 545b 26bd 9a1f 713d
00000160: 1172 b03d 97ed 8b3d d067 c33b 9485 ef3c
00000170: 3638 81bd f0fd e9bb 43d3 28bd 067f 643d
00000180: c878 88bd d247 fbbc ccac c1bc 503d fabc
00000190: 38e4 cfbc 7036 cf3b 5904 4fbd a3df 56bd
000001a0: 4ada 96bd 82a4 10bd 00f4 dab9 0014 5439
000001b0: ae0e 243d f887 7ebc 752c a73d 6b4d 9e3d
000001c0: b13d 843d 72d6 8bbd f3c0 31bd cbaa 8f3d
000001d0: cec5 17bd 96ed 3d3d 6730 4abd f93a 883d
000001e0: c177 39bd 9e9c b4bd 44fd 22bd 76dc 6e3d
000001f0: 6f47 a13d 4058 aabb 5e79 4e3d 36ff 7c3d
00000200: 705a 333c 005b 85bd 2ea1 273d 4c81 f33c
00000210: ede4 803d 0631 f2bc 7650 613d cee1 723d
00000220: c047 f33c 2cb1 42bd 1af7 41bd f1c8 af3d
00000230: 88b8 12bc 3b39 8f3d cec0 3f3d 5caa 81bd
00000240: 5f94 883d bcf0 f13c 80ca 873b 243c e43c
00000250: 6acb 3e3d 6029 88bb ee66 303d 60bf 6bbc
00000260: f353 b0bd e8a2 03bc 4847 2f3c ac23 c8bc
00000270: 90d9 b6bb bc18 b93c 7873 a9bd 30b8 79bd
00000280: 344f 66bd 001c 8e3a 0841 7dbd 9490 0b3d
00000290: 78ce a4bd bcf5 e43c 86fb 9cbd d716 63bd
000002a0: 0377 99bd bbe5 a83d 0446 9dbc 7e91 62bd
000002b0: 10ea aabb 6ec1 343d a294 7bbd 404e 0fbc
000002c0: 6e21 1f3d 9e5e 57bd ecea bcbc c064 b3bd
000002d0: f2c7 763d c09c edbc 8180 86bd 1db6 78bd
000002e0: 644a 883c 5acb 173d 1461 d9bc 1e8c 5a3d
000002f0: e048 3cbb 1417 c03c fe76 35bd 29b2 8a3d
00000300: 305b 56bd b5de 8a3d 5854 c9bc 5817 6c3c
00000310: 007a 54bc 33b1 833d e7ab 70bd aafa 29bd
00000320: 2ae0 213d 5052 583c 0285 a4bd 5b6d 96bd
00000330: 162d 7dbd d483 87bd 4052 5c3b a0f7 593b
00000340: 1f84 9bbd 2cac c03c 4613 543d 142e f7bc
00000350: b481 a4bd 5aed 2bbd 92c1 753d 0a03 663d
00000360: 209e 743c f3c7 a53d e632 6d3d 49d4 1cbd
00000370: a04b 2fbd 0a7d 78bd ea88 573d 6f19 a1bd
00000380: bd11 893d 9eee 85bd d444 9bbc 703c 8f3c
00000390: dab9 703d fef1 01bd c717 92bd cc42 d2bc
000003a0: 14e0 c33c d24c 6d3d 801a 683b ead8 543d
000003b0: 4043 e2bb 4922 b43d 1652 603d ea28 553d
000003c0: 754d 4bbd 28c6 6c3c 307e afbd c751 2bbd
000003d0: f0ae b03b e612 a6bd b699 2cbd 30b1 88bc
000003e0: 5dea 78bd 8a15 5a3d 3aa4 70bd 8c93 9f3c
000003f0: 09a2 b43d 7cc5 acbd 005c a838 69e5 86bd
-0.072273836 0.022787392 0.061552756 0.02213803 0.07130169 -0.047786444 -0.08474336 -0.006073691
-0.07356373 -0.07375297 -0.04330129 -0.0053108186 0.07265147 -0.019823283 0.063247465 0.062445797
0.07744128 -0.065000564 0.06815339 -0.04164054 -0.013920017 -0.083101675 0.04624697 0.005145848
-0.06794706 -0.07206499 -0.00713481 0.062522076 -0.013766885 -0.06021498 -0.027785782 0.032445706
0.021237567 0.039991103 -0.036765296 -0.031687297 0.037782826 -0.0004760772 -0.047892284 -0.018480599
0.024050087 -0.042504434 -0.042206097 0.075880505 -0.06887267 0.03235156 0.04396508 0.010585412
0.060504384 0.0067103356 0.07499608 0.06177274 -0.011877812 0.06360931 -0.0754231 0.0079803765
-0.040529862 0.086196266 0.0023826212 0.022931576 -0.00240995 -0.06827607 0.08490852 -0.04461068
-0.07643071 -0.043652374 -0.07429095 0.018301971 0.0020565465 0.03914856 -0.026591912 0.0357814
-0.0847843 -0.043461017 -0.05669502 0.08350543 0.021180034 0.04411473 -0.010711081 -0.08483449
-0.029932596 0.022155575 0.04452706 -0.022738226 0.08040873 0.015175045 -0.04061444 0.05886803
0.086155064 0.06832426 0.005963303 0.0292385 -0.063095495 -0.0071408674 -0.0412171 0.0557852
-0.06663662 -0.030673895 -0.023641966 -0.030546814 -0.025377378 0.006323628 -0.050541256 -0.05245937
-0.07365854 -0.035313137 -0.00041761994 0.00020225346 0.040053062 -0.015535347 0.081627764 0.0772961
0.06457079 -0.068280116 -0.0433969 0.07014998 -0.037053876 0.046369158 -0.049362566 0.06651873
-0.04528022 -0.08818935 -0.039792314 0.058315717 0.07874953 -0.0051985085 0.050408714 0.061766826
0.010946855 -0.065114975 0.040925197 0.02972474 0.06293664 -0.029564392 0.055008374 0.059297375
0.029697299 -0.047532246 -0.047354795 0.085832484 -0.0089551285 0.06993338 0.046814732 -0.063313216
0.066689245 0.029533736 0.004144013 0.027860709 0.04658071 -0.004155323 0.04306691 -0.014388889
-0.08609762 -0.008034445 0.010698147 -0.024431072 -0.0055801347 0.022594802 -0.08273977 -0.06096667
-0.056227878 0.0010842085 -0.061829597 0.034073427 -0.08047193 0.027949207 -0.07665162 -0.055441704
-0.07493403 0.082469426 -0.019198425 -0.055314533 -0.0052158907 0.04412978 -0.061421044 -0.008746684
0.03885024 -0.05258047 -0.023061238 -0.08759451 0.060249276 -0.029005408 -0.06567479 -0.06072055
0.016637035 0.037059166 -0.026535548 0.053356282 -0.002872996 0.023448505 -0.044302933 0.067722626
-0.052333057 0.06780759 -0.024576351 0.014409862 -0.01296854 0.064302824 -0.05875769 -0.041498818
0.03952042 0.013203219 -0.08033182 -0.07345077 -0.061810575 -0.06616941 0.003361836 0.0033259168
-0.075935595 0.023519598 0.051776193 -0.030173339 -0.080325514 -0.041974403 0.059999056 0.056155242
0.014930278 0.08094778 0.05790987 -0.03828839 -0.04279673 -0.06066612 0.052620806 -0.07866179
0.066928364 -0.06539653 -0.018953718 0.017484874 0.05877099 -0.031724922 -0.071334414 -0.025666617
0.02391056 0.05793459 0.0035416186 0.051964678 -0.0069049895 0.08795602 0.054765783 0.05204097
-0.049634416 0.014451541 -0.0856899 -0.041826036 0.005391948 -0.08109073 -0.042138778 -0.016686052
-0.06077038 0.053243198 -0.05875037 0.019479536 0.08819968 -0.08436105 8.0280006e-05 -0.06586725

out.bias f4 [4]
00000000: c460 bd3c 4efc 4f3d ac6b a0bd 209c d5bc
0.02311743 0.050777726 -0.07833037 -0.026075423

bn.weight f4 [37]
00000000: f247 853e d652 723f 90bc 233f f1cc 723f
00000010: 9005 3e3e 8e60 4b3f cd71 713f 634b 3e3f
00000020: b6d1 063f 622e 383f e45c 213f 6bd4 233f
00000030: 9ced 473e b2bb 0b3f 3c27 e33e f4f9 703e
00000040: d26a a93e c027 0c3f 1c5f 263e e40c 9d3e
00000050: f276 743f 5f46 323f 3299 f83e 36c9 093f
00000060: d9cb 0e3f 197c 093f f2c7 e43e e8ed 613f
00000070: b0ee 103d fc4d 0b3e ef51 183f c8a2 133e
00000080: 8011 663f ece0 c13e f858 7e3f 3815 cd3d
00000090: 84e7 363e
0.26031452 0.9465765 0.639596 0.94843966 0.1855681 0.79444206 0.9431427 0.7433378
0.52663743 0.71945775 0.63032365 0.63996 0.19524235 0.54583275 0.4436587 0.2353285
0.3308931 0.54748154 0.16247219 0.30673897 0.95493996 0.6963863 0.4855438 0.5382265
0.55779797 0.53704983 0.44683796 0.8825364 0.03538388 0.13603967 0.5950002 0.14417565
0.8987045 0.37866914 0.99354506 0.10013813 0.17861754

bn.bias f4 [37]
00000000: 0000 0000 0000 0000 0000 0000 0000 0000
00000010: 0000 0000 0000 0000 0000 0000 0000 0000
00000020: 0000 0000 0000 0000 0000 0000 0000 0000
00000030: 0000 0000 0000 0000 0000 0000 0000 0000
00000040: 0000 0000 0000 0000 0000 0000 0000 0000
00000050: 0000 0000 0000 0000 0000 0000 0000 0000
00000060: 0000 0000 0000 0000 0000 0000 0000 0000
00000070: 0000 0000 0000 0000 0000 0000 0000 0000
00000080: 0000 0000 0000 0000 0000 0000 0000 0000
00000090: 0000 0000
0.0 0.0 0.0 0.0 0.0 0.0 0.0 0.0
0.0 0.0 0.0 0.0 0.0 0.0 0.0 0.0
0.0 0.0 0.0 0.0 0.0 0.0 0.0 0.0
0.0 0.0 0.0 0.0 0.0 0.0 0.0 0.0
0.0 0.0 0.0 0.0 0.0

bn.running_mean f4 [37]
00000000: 0000 0000 0000 0000 0000 0000 0000 0000
00000010: 0000 0000 0000 0000 0000 0000 0000 0000
00000020: 0000 0000 0000 0000 0000 0000 0000 0000
00000030: 0000 0000 0000 0000 0000 0000 0000 0000
00000040: 0000 0000 0000 0000 0000 0000 0000 0000
00000050: 0000 0000 0000 0000 0000 0000 0000 0000
00000060: 0000 0000 0000 0000 0000 0000 0000 0000
00000070: 0000 0000 0000 0000 0000 0000 0000 0000
00000080: 0000 0000 0000 0000 0000 0000 0000 0000
00000090: 0000 0000
0.0 0.0 0.0 0.0 0.0 0.0 0.0 0.0
0.0 0.0 0.0 0.0 0.0 0.0 0.0 0.0
0.0 0.0 0.0 0.0 0.0 0.0 0.0 0.0
0.0 0.0 0.0 0.0 0.0 0.0 0.0 0.0
0.0 0.0 0.0 0.0 0.0

bn.running_var f4 [37]
00000000: 0000 803f 0000 803f 0000 803f 0000 803f
00000010: 0000 803f 0000 803f 0000 803f 0000 803f
00000020: 0000 803f 0000 803f 0000 803f 0000 803f
00000030: 0000 803f 0000 803f 0000 803f 0000 803f
00000040: 0000 803f 0000 803f 0000 803f 0000 803f
00000050: 0000 803f 0000 803f 0000 803f 0000 803f
00000060: 0000 803f 0000 803f 0000 803f 0000 803f
00000070: 0000 803f 0000 803f 0000 803f 0000 803f
00000080: 0000 803f 0000 803f 0000 803f 0000 803f
00000090: 0000 803f
1.0 1.0 1.0 1.0 1.0 1.0 1.0 1.0
1.0 1.0 1.0 1.0 1.0 1.0 1.0 1.0
1.0 1.0 1.0 1.0 1.0 1.0 1.0 1.0
1.0 1.0 1.0 1.0 1.0 1.0 1.0 1.0
1.0 1.0 1.0 1.0 1.0
